1/checkpoint.pth (torch, 3835 bytes, 4 tensors)

fc1.weight f4 [32, 6]
0.008039382 0.22177261 -0.3033478 -0.29361537 -0.18543544 0.14817841 0.033273384 0.31911784
-0.016646657 0.12835462 -0.14626902 -0.05587689 -0.39994454 -0.2536044 -0.17250729 -0.01777173
0.1859521 0.22192389 -0.24184775 -0.17786075 0.17126371 0.32841358 -0.12350611 0.36040205
-0.032387443 0.04224325 0.40840173 -0.38226667 -0.2976607 -0.066398256 -0.15303463 0.36406347
-0.25402015 -0.18906471 -0.23898399 -0.4041553 -0.18801506 0.36427188 0.23088352 0.20036799
0.046818357 -0.22081661 0.05539017 -0.3873199 -0.30433485 -0.20790465 0.2626308 0.21292138
-0.17996179 0.012037419 0.2408719 0.38146794 0.20690271 0.038191915 0.3156309 -0.24179488
0.11956131 -0.31421307 -0.32853094 -0.1715096 0.14887573 0.15391567 -0.25264835 0.11104932
0.20525275 -0.026074562 -0.034500316 0.10247917 0.22729458 0.36322385 -0.27004778 -0.17167507
0.17053784 0.34740347 0.35675246 0.37889808 0.096365586 -0.35371011 0.07256946 -0.2342458
-0.34522405 0.36048535 0.36038736 -0.44905862 0.08427989 -0.051030744 -0.043901872 -0.16677667
0.16354947 -0.25348282 0.18854713 0.18578728 0.34655523 0.15519448 -0.4713057 -0.21242712
0.229338 0.07029603 -0.25726134 -0.25760624 0.32275584 0.34113774 -0.19185469 -0.10640183
-0.41244993 0.0025691562 -0.34081268 -0.27790812 0.02567248 0.06239435 -0.12286703 0.23613411
-0.2919321 0.4277946 0.31025848 -0.3800864 -0.06297534 0.019893149 -0.0011574995 0.15680484
0.13419244 0.048096936 -0.23079848 0.17853063 -0.3438312 -0.26749182 -0.087529354 -0.19250403
-0.14353588 -0.3186517 -0.097704254 0.11507152 -0.28076273 -0.021358434 0.27503285 -0.02439349
0.00056329794 -0.005214454 0.08353087 0.2744455 0.3445996 0.28505716 0.43868062 -0.06849414
-0.3398369 -0.18132824 0.2994408 -0.0071616583 -0.18264726 -0.3349592 -0.41619766 -0.33375707
-0.09740517 0.217991 0.20194775 -0.3803101 0.2609668 -0.32841632 -0.07010533 -0.17446366
-0.10027224 -0.06498814 -0.3615491 -0.33728775 -0.05269519 -0.008313205 -0.17307055 0.1493668
-0.40704352 -0.03798453 0.34305948 -0.17378125 0.3567914 0.13785781 -0.32440975 0.26856896
-0.016747423 -0.16072352 0.37895432 -0.36074978 0.050742447 -0.079283595 0.28628665 0.10684048
0.18072532 0.1705481 -0.08838263 -0.06090973 -0.35779256 0.21808922 0.3628352 0.24967991
00000000: 9db7 033c 5c18 633e 6750 9bbe c154 96be
00000010: cae2 3dbe 15bc 173e ac49 083d 6a63 a33e
00000020: 925e 88bc 656f 033e 8cc7 15be 2adf 64bd
00000030: 88c5 ccbe 70d8 81be c0a5 30be 0596 91bc
00000040: 3a6a 3e3e 0440 633e f0a6 77be 2121 36be
00000050: c15f 2f3e d325 a83e c5f0 fcbd 9e86 b83e
00000060: b2a8 04bd 4207 2d3d 081a d13e 75b8 c3be
00000070: fc66 98be cffb 87bd 1cb5 1cbe 8766 ba3e
00000080: ee0e 82be 2e9a 41be 38b8 74be 72ed cebe
00000090: 0587 40be d881 ba3e bb6c 6c3e 442d 4d3e
000000a0: 9bc4 3f3d c01d 62be cee0 623d cb4e c6be
000000b0: c7d1 9bbe f5e4 54be 8b77 863e 1008 5a3e
000000c0: e747 38be 9838 453c 20a7 763e c44f c33e
000000d0: 4ede 533e 206f 1c3d 609a a13e 1499 77be
000000e0: 8fdc f43d 89e0 a0be 3535 a8be 36a0 2fbe
000000f0: e172 183e 129c 1d3e 205b 81be d36d e33d
00000100: c72d 523e 529a d5bc 3450 0dbd 99e0 d13d
00000110: e9bf 683e 7af8 b93e b443 8abe 97cb 2fbe
00000120: 79a1 2e3e dede b13e 42a8 b63e eefe c13e
00000130: 525b c53d 7e19 b5be 4c9f 943d 22de 6fbe
00000140: 35c1 b0be 8991 b83e b184 b83e 03eb e5be
00000150: ef9a ac3d 9d05 51bd 73d2 33bd 81c7 2abe
00000160: 8379 273e 80c8 81be 8012 413e 053f 3e3e
00000170: b06f b13e 4deb 1e3e fb4e f1be 7f86 59be
00000180: 95d7 6a3e 5df7 8f3d c2b7 83be f7e4 83be
00000190: 4140 a53e 9ba9 ae3e 8e75 44be 34e9 d9bd
000001a0: a32c d3be 4a5f 283b 007f aebe f949 8ebe
000001b0: 184f d23c 3891 7f3d b6a1 fbbd 24cd 713e
000001c0: 2078 95be e507 db3e 33da 9e3e af9a c2be
000001d0: 37f9 80bd f5f6 a23c 3db7 97ba 7391 203e
000001e0: be69 093e 4b01 453d 7056 6cbe bcd0 363e
000001f0: a50a b0be b0f4 88be 9742 b3bd c71f 45be
00000200: 12fb 12be 5126 a3be 2b19 c8bd 9eaa eb3d
00000210: 22c0 8fbe e2f7 aebc 1bd1 8c3e dbd4 c7bc
00000220: 49aa 133a 03de aabb 3c12 ab3d 1f84 8c3e
00000230: 5c6f b03e 03f3 913e bf9a e03e a846 8cbd
00000240: 1aff adbe 1cae 39be 4e50 993e 58ac eabb
00000250: e207 3bbe c67f abbe dc17 d5be 35e2 aabe
00000260: 5d7c c7bd 0839 5f3e 64cb 4e3e 01b8 c2be
00000270: 719d 853e 2f26 a8be 6293 8fbd 9aa6 32be
00000280: 885b cdbd 8018 85bd f71c b9be fbb0 acbe
00000290: e9d6 57bd 1c34 08bc 6839 31be 9cf3 183e
000002a0: 0268 d0be ab95 1bbd 7ea5 af3e b6f3 31be
000002b0: 5dad b63e 992a 0d3e 0919 a6be df81 893e
000002c0: e431 89bc b594 24be 4d06 c23e 32b4 b8be
000002d0: 50d7 4f3d 705f a2bd 2a94 923e 2ecf da3d
000002e0: 0f10 393e 29a4 2e3e f401 b5bd 7b7c 79bd
000002f0: 9630 b7be c852 5f3e 89c5 b93e 17ac 7f3e

fc1.bias f4 [32]
-0.2677627 0.047921326 -0.30436572 -0.1873048 -0.20636481 0.14560834 -0.20730773 -0.029199425
0.011839982 0.29242042 -0.34368822 -0.33049938 -0.23130462 0.3374277 -0.12217002 0.37637874
0.18283701 0.024990657 0.045536295 -0.04586831 0.030104354 -0.08493185 -0.03689465 0.05838818
-0.29226974 -0.23537752 0.33679172 -0.35181937 -0.055924702 0.45135105 0.14984173 0.0071636005
00000000: 3118 89be 2749 443d d3d5 9bbe d4cc 3fbe
00000010: 4c51 53be 5a1a 153e 7a48 54be a233 efbc
00000020: 7cfc 413c 21b8 953e e7f7 afbe 3737 a9be
00000030: 1edb 6cbe 53c3 ac3e 4734 fabd b7b4 c03e
00000040: a039 3b3e 35b9 cc3c 4484 3a3d 69e0 3bbd
00000050: 689d f63c c0f0 adbd d81e 17bd 7228 6f3d
00000060: 61a4 95be ce06 71be f76f ac3e ab21 b4be
00000070: 4d11 65bd 7c17 e73e 1c70 193e a3bc ea3b

fc2.weight f4 [3, 32]
-0.15831716 0.11364148 -0.120715134 -0.03195583 -0.012530834 -0.044634517 -0.027232585 0.14192411
0.0020863106 0.19436465 0.0854652 -0.10075655 0.034441832 -0.16956624 -0.113195404 0.09663542
0.05808913 0.13421537 -0.035725508 0.026282711 0.10601929 -0.16806306 0.10859819 -0.18294401
-0.01909467 -0.06175255 -0.058555704 0.029554868 0.12366087 -0.096765846 -0.08333488 -0.07523971
-0.2128303 0.058694616 -0.13499175 -0.18778144 -0.16291839 0.10706556 0.10350047 0.09921403
0.0875428 -0.099837564 -0.038682625 0.024348145 0.16814956 0.07636109 -0.06567014 -0.12799355
-0.19834597 0.025357073 -0.16835263 -0.22671694 0.13879347 -0.15688142 -0.023968846 0.07744325
0.012939798 -0.10975248 -0.16896407 0.08893591 0.013671203 0.1722875 -0.10351634 0.024897687
-0.0066216565 -0.008123341 -0.08365593 0.09696598 0.0622349 0.010293344 -0.026364082 -0.08513569
0.11571491 -0.12565698 0.08229003 -0.0405238 -0.071632735 0.042308375 -0.076859 0.04448896
0.056455337 -0.11646773 0.063633226 0.106153466 0.07414326 0.010296414 -0.12018186 -0.022355888
0.07369772 -0.04546553 0.06508135 0.15101027 -0.060774144 0.016315542 0.09892279 0.03461758
00000000: e51d 22be ddbc e83d 7f39 f7bd 1ee4 02bd
00000010: 214e 4dbc afd2 36bd df16 dfbc 8e54 113e
00000020: 7cba 083b 8707 473e 6108 af3d 7359 cebd
00000030: e112 0d3d c6a2 2dbe fed2 e7bd cbe8 c53d
00000040: deee 6d3d c16f 093e e954 12bd d74e d73c
00000050: a420 d93d b918 2cbe ba68 de3d ad55 3bbe
00000060: 6d6c 9cbc 3ef0 7cbd 1bd8 6fbd 0d1d f23c
00000070: e941 fd3d 2c2d c6bd 7aab aabd 4717 9abd
00000080: 30f0 59be c469 703d 473b 0abe c749 40be
00000090: 14d4 26be 3045 db3d 0ef8 d33d ba30 cb3d
000000a0: a449 b33d a377 ccbd ac71 1ebd c375 c73c
000000b0: 662f 2c3e 3463 9c3d 117e 86bd be10 03be
000000c0: 351b 4bbe a3b9 cf3c a264 2cbe 7c28 68be
000000d0: e01f 0e3e 86a5 20be 505a c4bc 919a 9e3d
000000e0: 7201 543c e9c5 e0bd eb04 2dbe 0824 b63d
000000f0: 2efd 5f3c 226c 303e 6000 d4bd 3cf6 cb3c
00000100: 7bfa d8bb c317 05bc cd53 abbd 1a96 c63d
00000110: 06ea 7e3d 6aa5 283c 7df9 d7bc 9f5b aebd
00000120: f0fb ec3d 39ac 00be ad87 a83d 49fc 25bd
00000130: 2fb4 92bd 8c4b 2d3d 4068 9dbd 0e3a 363d
00000140: b63d 673d a286 eebd 2352 823d fd66 d93d
00000150: 6cd8 973d 4ab2 283c e821 f6bd b223 b7bc
00000160: d5ee 963d 103a 3abd 5f49 853d 70a2 1a3e
00000170: 4fee 78bd 2ca8 853c 0898 ca3d 2acb 0d3d

fc2.bias f4 [3]
0.044604514 -0.0095520355 -0.12686568
00000000: 39b3 363d 2480 1cbc 14e9 01be
